…
ormation\nfor (name, out_shape, param_shape) in layer_info:\n    # assume that there is always an output shape\n    n_out = int(np.prod(out_shape))\n    n_params = 0\n    # parameters shape maybe empty (e.g ReLU --&gt; 0 params)\n    if len(param_shape) == 2:\n        n_weights = np.prod(param_shape[0])\n        n_bias = np.prod(param_shape[1])\n        n_params = int(n_weights + n_bias)\n\n    print(f\"Layer {name:&lt;14} \\\n        output: {str(out_shape):&lt;25} {n_out:&lt;10,}\\\n        Parameters: {str(param_shape):&lt;15} {n_params:,}\"\n    )\n\n\nLayer Conv2d                 output: (16, 64, 224, 224)        51,380,224        Parameters: [(64, 3, 3, 3), (64,)] 1,792\nLayer ReLU                   output: (16, 64, 224, 224)        51,380,224        Parameters: []              0\nLayer Conv2d                 output: (16, 64, 224, 224)        51,380,224        Parameters: [(64, 64, 3, 3), (64,)] 36,928\nLayer ReLU                   output: (16, 64, 224, 224)        51,380,224        Parameters: []              0\nLayer MaxPool2d              output: (16, 64, 112, 112)        12,845,056        Parameters: []              0\nLayer Conv2d                 output: (16, 128, 112, 112)       25,690,112        Parameters: [(128, 64, 3, 3), (128,)] 73,856\nLayer ReLU                   output: (16, 128, 112, 112)       25,690,112        Parameters: []              0\nLayer Conv2d                 output: (16, 128, 112, 112)       25,690,112        Parameters: [(128, 128, 3, 3), (128,)] 147,584\nLayer ReLU                   output: (16, 128, 112, 112)       25,690,112        Parameters: []              0\nLayer MaxPool2d              output: (16, 128, 56, 56)         6,422,528         Parameters: []              0\nLayer Conv2d                 output: (16, 256, 56, 56)         12,845,056        Parameters: [(256, 128, 3, 3), (256,)] 295,168\nLayer ReLU                   output: (16, 256, 56, 56)         12,845,056        Parameters: []              0\nLayer Conv2d                 output: (16, 256, 56, 56)         12,845,056        Parameters: [(256, 256, 3, 3), (256,)] 590,080\nLayer ReLU                   output: (16, 256, 56, 56)         12,845,056        Parameters: []              0\nLayer Conv2d                 output: (16, 256, 56, 56)         12,845,056        Parameters: [(256, 256, 3, 3), (256,)] 590,080\nLayer ReLU                   output: (16, 256, 56, 56)         12,845,056        Parameters: []              0\nLayer MaxPool2d              output: (16, 256, 28, 28)         3,211,264         Parameters: []              0\nLayer Conv2d                 output: (16, 512, 28, 28)         6,422,528         Parameters: [(512, 256, 3, 3), (512,)] 1,180,160\nLayer ReLU                   output: (16, 512, 28, 28)         6,422,528         Parameters: []              0\nLayer Conv2d                 output: (16, 512, 28, 28)         6,422,528         Parameters: [(512, 512, 3, 3), (512,)] 2,359,808\nLayer ReLU                   output: (16, 512, 28, 28)         6,422,528         Parameters: []              0\nLayer Conv2d                 output: (16, 512, 28, 28)         6,422,528         Parameters: [(512, 512, 3, 3), (512,)] 2,359,808\nLayer ReLU                   output: (16, 512, 28, 28)         6,422,528         Parameters: []              0\nLayer MaxPool2d              output: (16, 512, 14, 14)         1,605,632         Parameters: []              0\nLayer Conv2d                 output: (16, 512, 14, 14)         1,605,632         Parameters: [(512, 512, 3, 3), (512,)] 2,359,808\nLayer ReLU                   output: (16, 512, 14, 14)         1,605,632         Parameters: []              0\nLayer Conv2d                 output: (16, 512, 14, 14)         1,605,632         Parameters: [(512, 512, 3, 3), (512,)] 2,359,808\nLayer ReLU                   output: (16, 512, 14, 14)         1,605,632         Parameters: []              0\nLayer Conv2d                 output: (16, 512, 14, 14)         1,605,632         Parameters: [(512, 512, 3, 3), (512,)] 2,359,808\nLayer ReLU                   output: (16, 512, 14, 14)         1,605,632         Parameters: []              0\nLayer MaxPool2d              output: (16, 512, 7, 7)           401,408           Parameters: []              0\nLayer AdaptiveAvgPool2d         output: (16, 512, 7, 7)           401,408           Parameters: []              0\nLayer Linear                 output: (16, 4096)                65,536            Parameters: [(4096, 25088), (4096,)] 102,764,544\nLayer ReLU                   output: (16, 4096)                65,536            Parameters: []              0\nLayer Dropout                output: (16, 4096)                65,536            Parameters: []              0\nLayer Linear                 output: (16, 4096)                65,536            Parameters: [(4096, 4096), (4096,)] 16,781,312\nLayer ReLU                   output: (16, 4096)                65,536            Parameters: []              0\nLayer Dropout                output: (16, 4096)                65,536            Parameters: []              0\nLayer Linear                 output: (16, 1000)                16,000            Parameters: [(1000, 4096), (1000,)] 4,097,000\nLayer VGG                    output: (16, 1000)                16,000            Parameters: [(64, 3, 3, 3), (64,), (64, 64, 3, 3), (64,), (128, 64, 3, 3), (128,), (128, 128, 3, 3), (128,), (256, 128, 3, 3), (256,), (256, 256, 3, 3), (256,), (256, 256, 3, 3), (256,), (512, 256, 3, 3), (512,), (512, 512, 3, 3), (512,), (512, 512, 3, 3), (512,), (512, 512, 3, 3), (512,), (512, 512, 3, 3), (512,), (512, 512, 3, 3), (512,), (4096, 25088), (4096,), (4096, 4096), (4096,)
…
