…
rameters())\n\n# inspect input shape, model, layers, params counts\nX, _ = next(iter(train_loader))\nprint('input_shape:      ', X.shape)\nprint('number of classes:', nc)\nprint(summary(model, input_data=X, device=device))\n\n\ninput_shape:       torch.Size([64, 3, 32, 32])\nnumber of classes: 10\n==========================================================================================\nLayer (type:depth-idx)                   Output Shape              Param #\n==========================================================================================\nCNN_Model                                [64, 10]                  --\n├─Conv2d: 1-1                            [64, 32, 32, 32]          896\n├─MaxPool2d: 1-2                         [64, 32, 16, 16]          --\n├─Flatten: 1-3                           [64, 8192]                --\n├─Linear: 1-4                            [64, 128]                 1,048,704\n├─Linear: 1-5                            [64, 10]                  1,290\n==========================================================================================\nTotal params: 1,050,890\nTrainable params: 1,050,890\nNon-trainable params: 0\nTotal mult-adds (Units.MEGABYTES): 125.92\n==========================================================================================\nInput size (MB): 0.79\nForward/backward pass size (MB): 16.85\nParams size (MB): 4.20\nEstim
…
    "text": "Load Model\n\n\nCode\nimport torchvision.models as models\nfrom torchinfo import summary\n\n# load model and assign pretrained weights\nmodel = models.vgg16(weights=models.VGG16_Weights.IMAGENET1K_V1)\n\n# put model into evaluation mode \n# no dropout, no batch norm (as used in training)\nmodel = model.eval()\n\n# print model summaries\nsummary(model, input_size=(1, 3, 224, 224))\n\n\n==========================================================================================\nLayer (type:depth-idx)                   Output Shape              Param #\n==========================================================================================\nVGG                                      [1, 1000]                 --\n├─Sequential: 1-1                        [1, 512, 7, 7]            --\n│    └─Conv2d: 2-1                       [1, 64, 224, 224]         1,792\n│    └─ReLU: 2-2                         [1, 64, 224, 224]         --\n│    └─Conv2d: 2-3                       [1, 64, 224, 224]         36,928\n│    └─ReLU: 2-4                         [1, 64, 224, 224]         --\n│    └─MaxPool2d: 2-5                    [1, 64, 112, 112]         --\n│    └─Conv2d: 2-6                       [1, 128, 112, 112]        73,856\n│    └─ReLU: 2-7                         [1, 128, 112, 112]        --\n│    └─Conv2d: 2-8                       [1, 128, 112, 112]        147,584\n│    └─ReLU: 2-9                         [1, 128, 112, 112]        --\n│    └─MaxPool2d: 2-10                   [1, 128, 56, 56]          --\n│    └─Conv2d: 2-11                      [1, 256, 56, 56]          295,168\n│    └─ReLU: 2-12                        [1, 256, 56, 56]          --\n│    └─Conv2d: 2-13                      [1, 256, 56, 56]          590,080\n│    └─ReLU: 2-14                        [1, 256, 56, 56]          --\n│    └─Conv2d: 2-15                      [1, 256, 56, 56]          590,080\n│    └─ReLU: 2-16                        [1, 256, 56, 56]          --\n│    └─MaxPool2d: 2-17                   [1, 256, 28, 28]          --\n│    └─Conv2d: 2-18                      [1, 512, 28, 28]          1,180,160\n│    └─ReLU: 2-19                        [1, 512, 28, 28]          --\n│    └─Conv2d: 2-20                      [1, 512, 28, 28]          2,359,808\n│    └─ReLU: 2-21                        [1, 512, 28, 28]          --\n│    └─Conv2d: 2-22                      [1, 512, 28, 28]          2,359,808\n│    └─ReLU: 2-23                        [1, 512, 28, 28]          --\n│    └─MaxPool2d: 2-24                   [1, 512, 14, 14]          --\n│    └─Conv2d: 2-25                      [1, 512, 14, 14]          2,359,808\n│    └─ReLU: 2-26                        [1, 512, 14, 14]          --\n│    └─Conv2d: 2-27                      [1, 512, 14, 14]          2,359,808\n│    └─ReLU: 2-28                        [1, 512, 14, 14]          --\n│    └─Conv2d: 2-29                      [1, 512, 14, 14]          2,359,808\n│    └─ReLU: 2-30                        [1, 512, 14, 14]          --\n│    └─MaxPool2d: 2-31                   [1, 512, 7, 7]            --\n├─AdaptiveAvgPool2d: 1-2                 [1, 512, 7, 7]            --\n├─Sequential: 1-3                        [1, 1000]                 --\n│    └─Linear: 2-32                      [1, 4096]                 102,764,544\n│    └─ReLU: 2-33                        [1, 4096]                 --\n│    └─Dropout: 2-34                     [1, 4096]                 --\n│    └─Linear: 2-35                      [1, 4096]                 16,781,312\n│    └─ReLU: 2-36                        [1, 4096]                 --\n│    └─Dropout: 2-37                     [1, 4096]                 --\n│    └─Linear: 2-38                      [1, 1000]                 4,097,000\n==========================================================================================\nTotal params: 138,357,544\nTrainable params: 138,357,544\nNon-trainable params: 0\nTotal mult-adds (Units.GIGABYTES): 15.48\n==========================================================================================\nInput size (MB): 0.60\nForward/backward pass size (MB): 108.45\nParams size (MB): 553.43\
…
